Files already downloaded and verified
Files already downloaded and verified
Files already downloaded and verified
==========================================================================================
Layer (type:depth-idx)                   Output Shape              Param #
==========================================================================================
Model                                    [128, 10]                 --
├─Sequential: 1-1                        [128, 64, 32, 32]         --
│    └─Conv2d: 2-1                       [128, 64, 32, 32]         1,792
│    └─BatchNorm2d: 2-2                  [128, 64, 32, 32]         128
│    └─ReLU: 2-3                         [128, 64, 32, 32]         --
├─Sequential: 1-2                        [128, 128, 16, 16]        --
│    └─Conv2d: 2-4                       [128, 128, 32, 32]        73,856
│    └─BatchNorm2d: 2-5                  [128, 128, 32, 32]        256
│    └─ReLU: 2-6                         [128, 128, 32, 32]        --
│    └─MaxPool2d: 2-7                    [128, 128, 16, 16]        --
├─Sequential: 1-3                        [128, 128, 16, 16]        --
│    └─Sequential: 2-8                   [128, 128, 16, 16]        --
│    │    └─Conv2d: 3-1                  [128, 128, 16, 16]        147,584
│    │    └─BatchNorm2d: 3-2             [128, 128, 16, 16]        256
│    │    └─ReLU: 3-3                    [128, 128, 16, 16]        --
│    └─Sequential: 2-9                   [128, 128, 16, 16]        --
│    │    └─Conv2d: 3-4                  [128, 128, 16, 16]        147,584
│    │    └─BatchNorm2d: 3-5             [128, 128, 16, 16]        256
│    │    └─ReLU: 3-6                    [128, 128, 16, 16]        --
├─Sequential: 1-4                        [128, 256, 8, 8]          --
│    └─Conv2d: 2-10                      [128, 256, 16, 16]        295,168
│    └─BatchNorm2d: 2-11                 [128, 256, 16, 16]        512
│    └─ReLU: 2-12                        [128, 256, 16, 16]        --
│    └─MaxPool2d: 2-13                   [128, 256, 8, 8]          --
├─Sequential: 1-5                        [128, 512, 4, 4]          --
│    └─Conv2d: 2-14                      [128, 512, 8, 8]          1,180,160
│    └─BatchNorm2d: 2-15                 [128, 512, 8, 8]          1,024
│    └─ReLU: 2-16                        [128, 512, 8, 8]          --
│    └─MaxPool2d: 2-17                   [128, 512, 4, 4]          --
├─Sequential: 1-6                        [128, 512, 4, 4]          --
│    └─Sequential: 2-18                  [128, 512, 4, 4]          --
│    │    └─Conv2d: 3-7                  [128, 512, 4, 4]          2,359,808
│    │    └─BatchNorm2d: 3-8             [128, 512, 4, 4]          1,024
│    │    └─ReLU: 3-9                    [128, 512, 4, 4]          --
│    └─Sequential: 2-19                  [128, 512, 4, 4]          --
│    │    └─Conv2d: 3-10                 [128, 512, 4, 4]          2,359,808
│    │    └─BatchNorm2d: 3-11            [128, 512, 4, 4]          1,024
│    │    └─ReLU: 3-12                   [128, 512, 4, 4]          --
├─Sequential: 1-7                        [128, 10]                 --
│    └─MaxPool2d: 2-20                   [128, 512, 1, 1]          --
│    └─Flatten: 2-21                     [128, 512]                --
│    └─Linear: 2-22                      [128, 10]                 5,130
==========================================================================================
Total params: 6,575,370
Trainable params: 6,575,370
Non-trainable params: 0
Total mult-adds (G): 48.59
==========================================================================================
Input size (MB): 1.57
Forward/backward pass size (MB): 771.76
Params size (MB): 26.30
Estimated Total Size (MB): 799.64
==========================================================================================
==========================================================================================
Layer (type:depth-idx)                   Output Shape              Param #
==========================================================================================
Model                                    [128, 10]                 --
├─Sequential: 1-1                        [128, 64, 32, 32]         --
│    └─Conv2d: 2-1                       [128, 64, 32, 32]         1,792
│    └─BatchNorm2d: 2-2                  [128, 64, 32, 32]         128
│    └─ReLU: 2-3                         [128, 64, 32, 32]         --
├─Sequential: 1-2                        [128, 128, 16, 16]        --
│    └─Conv2d: 2-4                       [128, 128, 32, 32]        73,856
│    └─BatchNorm2d: 2-5                  [128, 128, 32, 32]        256
│    └─ReLU: 2-6                         [128, 128, 32, 32]        --
│    └─MaxPool2d: 2-7                    [128, 128, 16, 16]        --
├─Sequential: 1-3                        [128, 128, 16, 16]        --
│    └─Sequential: 2-8                   [128, 128, 16, 16]        --
│    │    └─Conv2d: 3-1                  [128, 128, 16, 16]        147,584
│    │    └─BatchNorm2d: 3-2             [128, 128, 16, 16]        256
│    │    └─ReLU: 3-3                    [128, 128, 16, 16]        --
│    └─Sequential: 2-9                   [128, 128, 16, 16]        --
│    │    └─Conv2d: 3-4                  [128, 128, 16, 16]        147,584
│    │    └─BatchNorm2d: 3-5             [128, 128, 16, 16]        256
│    │    └─ReLU: 3-6                    [128, 128, 16, 16]        --
├─Sequential: 1-4                        [128, 256, 8, 8]          --
│    └─Conv2d: 2-10                      [128, 256, 16, 16]        295,168
│    └─BatchNorm2d: 2-11                 [128, 256, 16, 16]        512
│    └─ReLU: 2-12                        [128, 256, 16, 16]        --
│    └─MaxPool2d: 2-13                   [128, 256, 8, 8]          --
├─Sequential: 1-5                        [128, 512, 4, 4]          --
│    └─Conv2d: 2-14                      [128, 512, 8, 8]          1,180,160
│    └─BatchNorm2d: 2-15                 [128, 512, 8, 8]          1,024
│    └─ReLU: 2-16                        [128, 512, 8, 8]          --
│    └─MaxPool2d: 2-17                   [128, 512, 4, 4]          --
├─Sequential: 1-6                        [128, 512, 4, 4]          --
│    └─Sequential: 2-18                  [128, 512, 4, 4]          --
│    │    └─Conv2d: 3-7                  [128, 512, 4, 4]          2,359,808
│    │    └─BatchNorm2d: 3-8             [128, 512, 4, 4]          1,024
│    │    └─ReLU: 3-9                    [128, 512, 4, 4]          --
│    └─Sequential: 2-19                  [128, 512, 4, 4]          --
│    │    └─Conv2d: 3-10                 [128, 512, 4, 4]          2,359,808
│    │    └─BatchNorm2d: 3-11            [128, 512, 4, 4]          1,024
│    │    └─ReLU: 3-12                   [128, 512, 4, 4]          --
├─Sequential: 1-7                        [128, 10]                 --
│    └─MaxPool2d: 2-20                   [128, 512, 1, 1]          --
│    └─Flatten: 2-21                     [128, 512]                --
│    └─Linear: 2-22                      [128, 10]                 5,130
==========================================================================================
Total params: 6,575,370
Trainable params: 6,575,370
Non-trainable params: 0
Total mult-adds (G): 48.59
==========================================================================================
Input size (MB): 1.57
Forward/backward pass size (MB): 771.76
Params size (MB): 26.30
Estimated Total Size (MB): 799.64
…
